…
      },
      "source": [
        "print(\"Model info... \\n \")\n",
        "print(model.summary())"
      ],
      "execution_count": 43,
      "outputs": [
        {
          "output_type": "stream",
          "text": [
            "Model info... \n",
            " \n",
            "Model: \"sequential\"\n",
            "_________________________________________________________________\n",
            "Layer (type)                 Output Shape              Param #   \n",
            "=================================================================\n",
            "conv2d (Conv2D)              (None, 50, 50, 32)        320       \n",
            "_________________________________________________________________\n",
            "activation (Activation)      (None, 50, 50, 32)        0         \n",
            "_________________________________________________________________\n",
            "batch_normalization (BatchNo (None, 50, 50, 32)        128       \n",
            "_________________________________________________________________\n",
            "max_pooling2d (MaxPooling2D) (None, 25, 25, 32)        0         \n",
            "_________________________________________________________________\n",
            "conv2d_1 (Conv2D)            (None, 25, 25, 64)        18496     \n",
            "_________________________________________________________________\n",
            "activation_1 (Activation)    (None, 25, 25, 64)        0         \n",
            "_________________________________________________________________\n",
            "batch_normalization_1 (Batch (None, 25, 25, 64)        256       \n",
            "_________________________________________________________________\n",
            "conv2d_2 (Conv2D)            (None, 25, 25, 64)        36928     \n",
            "_________________________________________________________________\n",
            "activation_2 (Activation)    (None, 25, 25, 64)        0         \n",
            "_________________________________________________________________\n",
            "batch_normalization_2 (Batch (None, 25, 25, 64)        256       \n",
            "_________________________________________________________________\n",
            "max_pooling2d_1 (MaxPooling2 (None, 12, 12, 64)        0         \n",
            "_________________________________________________________________\n",
            "dropout (Dropout)            (None, 12, 12, 64)        0         \n",
            "_________________________________________________________________\n",
            "conv2d_3 (Conv2D)            (None, 12, 12, 128)       73856     \n",
            "_________________________________________________________________\n",
            "activation_3 (Activation)    (None, 12, 12, 128)       0         \n",
            "_________________________________________________________________\n",
            "batch_normalization_3 (Batch (None, 12, 12, 128)       512       \n",
            "_________________________________________________________________\n",
            "conv2d_4 (Conv2D)            (None, 12, 12, 128)       147584    \n",
            "_________________________________________________________________\n",
            "activation_4 (Activation)    (None, 12, 12, 128)       0         \n",
            "_________________________________________________________________\n",
            "batch_normalization_4 (Batch (None, 12, 12, 128)       512       \n",
            "_________________________________________________________________\n",
            "conv2d_5 (Conv2D)            (None, 12, 12, 128)       147584    \n",
            "_________________________________________________________________\n",
            "activation_5 (Activation)    (None, 12, 12, 128)       0         \n",
            "_________________________________________________________________\n",
            "batch_normalization_5 (Batch (None, 12, 12, 128)       512       \n",
            "_________________________________________________________________\n",
            "max_pooling2d_2 (MaxPooling2 (None, 6, 6, 128)         0         \n",
            "_________________________________________________________________\n",
            "dropout_1 (Dropout)          (None, 6, 6, 128)         0         \n",
            "_________________________________________________________________\n",
            "flatten (Flatten)            (None, 4608)              0         \n",
            "_________________________________________________________________\n",
            "dense (Dense)                (None, 512)               2359808   \n",
            "_________________________________________________________________\n",
            "activation_6 (Activation)    (None, 512)               0         \n",
            "_________________________________________________________________\n",
            "batch_normalization_6 (Batch (None, 512)               2048      \n",
            "_________________________________________________________________\n",
            "dropout_2 (Dropout)          (None, 512)               0         \n",
            "_________________________________________________________________\n",
            "dense_1 (Dense)              (None, 33)                16929     \n",
            "_________________________________________________________________\n",
            "activation_7 (Activation)    (None, 33)                0         \n",
            "=================================================================\n",
            "Total params: 2,805,729\n",
            "Trainable params: 2,803,617\n",
            "Non-trainable params: 2,112\n",
            "_________________________________________________________________\n",
            "None\n"
          ],
          "name": "stdout"
        }
      ]
    },
    {
…
